image_model.tflite (tflite, 453000 bytes, 21 tensors)

sequential/dense_2/MatMul f4 [5, 32]
0	0xbd63ba86	-0.055597804
1	0xbea2beba	-0.31786138
2	0x3e79dae8	0.24399912
3	0x3e6b6ba9	0.22990288
4	0xbb982332	-0.0046428675
5	0x3ea06fb0	0.3133521
6	0xbe9151cb	-0.28382716
7	0x3e3d6883	0.184969
8	0xbe306818	-0.17227209
9	0xbec09c44	-0.3761922
10	0xbe450274	-0.19239217
11	0x3e2e5f92	0.17028645
12	0xbebfd7ed	-0.37469426
13	0x3e186fe2	0.1488643
14	0xbeb4996c	-0.35273302
15	0x3eb1e935	0.34748235
16	0x3dfb40be	0.12268208
17	0x3ea4c712	0.3218313
18	0x3e9231fc	0.2855376
19	0x3e978aac	0.29597986
20	0x3e14bbe7	0.14524804
21	0x3e1d00aa	0.15332285
22	0x3d9d3c5c	0.07677528
23	0x3ec86b4b	0.39144358
24	0x3ed5dd54	0.41770422
25	0x3ebbe202	0.36695868
26	0x3ddfa27f	0.109196655
27	0x3af5b5da	0.0018746213
28	0xbd97b387	-0.07407289
29	0xbdf13e61	-0.11779476
30	0x3e86a1a0	0.26295185
31	0x3e6ba331	0.23011471
32	0x3eb13ee0	0.34618282
33	0x3e93df29	0.28881195
34	0x3e94663e	0.28984255
35	0xbd8873e4	-0.066627294
36	0x3dca1ba9	0.09868557
37	0xbe00aa19	-0.12564887
38	0xbcf43929	-0.029812412
39	0xbea766e0	-0.32695675
40	0xbe1c8d4b	-0.15288274
41	0x3ccbf47f	0.024896858
42	0x3e56467d	0.20925327
43	0xbe086628	-0.1332022
44	0xbe81b49a	-0.253331
45	0xbe44d470	-0.19221663
46	0x3e7778df	0.24167202
47	0x3c44bfa0	0.012008578
48	0x3e54a441	0.20765783
49	0x3edf63d1	0.4363084
50	0x3d3beb68	0.045878798
51	0x3dd0a8e9	0.10188467
52	0x3e8fcd23	0.28086194
53	0xbe371049	-0.17877306
54	0xbed621ef	-0.41822764
55	0x3e48844b	0.19581716
56	0xbe3bb7bf	-0.18331812
57	0xbe1874f4	-0.14888364
58	0xbda66edd	-0.08126614
59	0x3e4cba8a	0.19993034
60	0x3b8a3af2	0.0042184526
61	0x3e998789	0.29986218
62	0xbd0d03ec	-0.03442757
63	0xbe24d7f9	-0.16098012
64	0x39a499f7	0.0003139523
65	0x3e119c7c	0.1421985
66	0xbe1a3862	-0.15060571
67	0xbe399f4f	-0.18127178
68	0xbd40bd78	-0.04705569
69	0xbd3b548e	-0.045734935
70	0xbdacaf9b	-0.084319316
71	0x3e272848	0.1632396
72	0x3eb6e6c1	0.35722926
73	0xbe670e41	-0.22564031
74	0x3ec5c1fa	0.38624555
75	0xbe566a84	-0.2093907
76	0x3e9a0bca	0.3008712
77	0xbed2464d	-0.4106926
78	0x3e1d2d9c	0.1534943
79	0x3d963fe0	0.07336402
80	0x3dc021ac	0.093814224
81	0xbe79f4da	-0.2440981
82	0xbdc00b06	-0.093771026
83	0xbcd3306b	-0.025779923
84	0x3ec54737	0.38530895
85	0x3d4a6e6b	0.04942171
86	0xbd80c2ce	-0.06287156
87	0xbd420300	-0.047366142
88	0x3e28d21d	0.16486402
89	0xbd707994	-0.058709696
90	0x3b87a6b9	0.004139748
91	0x3d305d41	0.043057684
92	0xbe2eaeeb	-0.17058913
93	0x3e599b4e	0.2125065
94	0x3ebe136d	0.37124196
95	0x3dc47dde	0.0959432
96	0x3d45520c	0.04817395
97	0xbbc08773	-0.005875522
98	0x3e1f3772	0.15548494
99	0x3d448742	0.047980554
100	0x3c529ecd	0.012855244
101	0x3def4253	0.11682572
102	0xbe667a5e	-0.22507617
103	0xbd034947	-0.032052305
104	0xbd816335	-0.0631775
105	0x3cf81f94	0.030288495
106	0xbdc35786	-0.09538178
107	0xbdc29b85	-0.09502319
108	0x3ebb5575	0.36588636
109	0x3e5ee05e	0.21765277
110	0x3e9402fe	0.28908533
111	0x3e825ab3	0.25459823
112	0xba89e767	-0.0010521234
113	0x3eb8c1b5	0.36085287
114	0xbec04402	-0.37551886
115	0x3e3d121a	0.18463936
116	0xbe4d52ea	-0.2005116
117	0xbd3cfc8f	-0.046139296
118	0x3ec3276a	0.38116008
119	0xbe363013	-0.17791776
120	0x3e19ecac	0.1503169
121	0x3e354b0a	0.17704406
122	0x3e30328b	0.1720678
123	0x3e663a72	0.22483233
124	0x3eda69b4	0.4265877
125	0xbdf9460f	-0.12171566
126	0x3e299813	0.16561918
127	0xbe02b799	-0.1276535
128	0xbe9288d8	-0.28620028
129	0x3e54eca3	0.20793395
130	0x3e03b479	0.12861814
131	0xbe24b26e	-0.1608369
132	0x3d02a295	0.03189333
133	0x3ead015a	0.33790094
134	0x3e8d5d18	0.27610087
135	0x3c2198dd	0.009863106
136	0x3d64502d	0.055740524
137	0x3e1a875f	0.15090702
138	0x3d0a106a	0.03370706
139	0x3e33359f	0.17500924
140	0x3ea10a3c	0.3145312
141	0xbe740244	-0.2382899
142	0x3e826e7d	0.2547492
143	0x3e711ac7	0.23545371
144	0xbe9d6fef	-0.3074946
145	0x3e14f29c	0.14545673
146	0xbdaa99d8	-0.083301246
147	0xbd9f3b3c	-0.0777497
148	0xbd67bd93	-0.056577276
149	0x3e835eca	0.25658256
150	0xbc835414	-0.016031303
151	0x3d9cd1ce	0.076572046
152	0x3e358764	0.17727429
153	0xbda3ec1f	-0.08004021
154	0x3e47c911	0.19510294
155	0xbe03e2dc	-0.12879509
156	0xbdc8774d	-0.0978838
157	0xbea37f1d	-0.31932917
158	0xbdfd8292	-0.1237842
159	0x3e6759f9	0.22592916

sequential/dense/BiasAdd/ReadVariableOp f4 [64]
0	0xbe045d97	-0.12926327
1	0x3ddcc463	0.10779645
2	0xbc02771d	-0.007962969
3	0x3e6bded1	0.23034216
4	0xbe138620	-0.14406633
5	0x3c808563	0.015688604
6	0xbc2e7e77	-0.010650269
7	0x3e0089c9	0.12552561
8	0x3df6280d	0.12019358
9	0x3df3465e	0.11878656
10	0x3d84cf9c	0.06484911
11	0x3d0ccc32	0.034374423
12	0xbdcc7147	-0.099825434
13	0xbd7cb4b5	-0.061695773
14	0xbcccce8c	-0.025000833
15	0xbda7997a	-0.0818357
16	0x3db956c7	0.090497546
17	0xbd2fe3a9	-0.042941723
18	0x3dec605c	0.115418166
19	0x3d829dec	0.063777775
20	0x3dc5f9d2	0.0966679
21	0xbd6e2976	-0.05814501
22	0x3cec4465	0.028841207
23	0x3dc034b0	0.09385049
24	0x3d75e326	0.06003108
25	0xbb8a2c7a	-0.004216728
26	0x3dac7c67	0.08422165
27	0x3e413acc	0.18870085
28	0x3dde75f1	0.10862339
29	0x3da356e6	0.07975559
30	0x3de5cad0	0.11220324
31	0x3c7b7a48	0.015348978
32	0xbcc5d8e6	-0.024151277
33	0xbdbcf4b9	-0.09226365
34	0xbca6f0db	-0.02037852
35	0xbd94b288	-0.07260615
36	0x384d1c54	4.890219e-05
37	0x3decc200	0.1156044
38	0x3d977c68	0.073967755
39	0x3d690a2c	0.056894466
40	0xbda81f05	-0.082090415
41	0x3ddc73d1	0.10764278
42	0xbd8461b7	-0.0646395
43	0x3c2fd406	0.010731703
44	0xbdc941a1	-0.09826971
45	0xbb939a50	-0.0045044795
46	0x3d32a081	0.0436101
47	0xbd0f626d	-0.035005976
48	0x3cf7eb3a	0.030263532
49	0xbd851a31	-0.06499136
50	0xbd11993f	-0.035546537
51	0x3d36155e	0.04445397
52	0xbdb2a282	-0.08722402
53	0x3e068e9d	0.1314034
54	0xbc9f5433	-0.019449329
55	0x3d96e19a	0.07367249
56	0x3db6d560	0.08927417
57	0xbd988f90	-0.074492574
58	0xbdf6e211	-0.120548375
59	0xbdc5e42b	-0.0966266
60	0xbd12e812	-0.03586585
61	0xbda52bea	-0.080650166
62	0x3c8f81ff	0.017518042
63	0x3a60eb55	0.0008579989

sequential/dense_2/BiasAdd/ReadVariableOp f4 [5]
0	0x3cf78359	0.030213999
1	0x3c1444a4	0.009049568
2	0x3d856d73	0.065150164
3	0xbc5592ab	-0.013035457
4	0xbd9a1850	-0.075241685

sequential/dense_1/BiasAdd/ReadVariableOp f4 [32]
0	0x3cdd8f12	0.02704576
1	0x3c0cf4e0	0.008603305
2	0xbd4db70f	-0.050223406
3	0xbd10954d	-0.035298634
4	0xbd998146	-0.0749536
5	0x3cd8323b	0.02639114
6	0xbce1d380	-0.027566671
7	0x3d1f919e	0.03895723
8	0xbd96a627	-0.0735591
9	0xbd1d1840	-0.038353205
10	0x3cd2c845	0.025730262
11	0xbda87942	-0.08226253
12	0x3df73704	0.1207104
13	0xbcdf68cf	-0.027271656
14	0x3df677b2	0.12034549
15	0x3c2d71fd	0.010586259
16	0x3d917af7	0.07103532
17	0xbe0231b3	-0.12714271
18	0x3e0145b4	0.12624246
19	0xbd5eeb9b	-0.05442391
20	0x3d8de662	0.06928708
21	0x3c813269	0.015771108
22	0x3d1d7b4a	0.038447656
23	0xbae6bfa4	-0.0017604721
24	0xbd8aefdc	-0.06784031
25	0xbd434fae	-0.04768341
26	0xbd5ba4c5	-0.053623933
27	0xbc29a695	-0.010354658
28	0xbbb5f077	-0.0055523473
29	0xbd103245	-0.03520419
30	0xbcfe29a5	-0.031025717
31	0xbd54e2e5	-0.051974196

sequential/dense/MatMul i1 [64, 32] scale=0.003165363 zero_point=0
0	0x1a	0.08229944
1	0xda	-0.1202838
2	0x0d	0.04114972
3	0xb8	-0.22790614
4	0x02	0.006330726
5	0x23	0.11078771
6	0x13	0.0601419
7	0xe6	-0.08229944
8	0x04	0.012661452
9	0x42	0.20891397
10	0xc2	-0.19625251
11	0x0f	0.047480445
12	0xfb	-0.015826816
13	0xe2	-0.09496089
14	0xa9	-0.2753866
15	0xd8	-0.12661453
16	0xb7	-0.2310715
17	0x05	0.015826816
18	0xc7	-0.1804257
19	0xd9	-0.12344916
20	0xa3	-0.29437876
21	0xf4	-0.037984356
22	0xf8	-0.025322905
23	0x0c	0.037984356
24	0x35	0.16776425
25	0xd4	-0.13927598
26	0x35	0.16776425
27	0xb4	-0.2405676
28	0xc6	-0.18359105
29	0x40	0.20258324
30	0xfd	-0.009496089
31	0x3a	0.18359105
32	0x41	0.2057486
33	0x19	0.07913408
34	0xd5	-0.13611062
35	0xc6	-0.18359105
36	0xd4	-0.13927598
37	0x2d	0.14244133
38	0xf2	-0.044315085
39	0xdb	-0.11711843
40	0x37	0.17409497
41	0x26	0.1202838
42	0xbd	-0.21207933
43	0xe6	-0.08229944
44	0x48	0.22790614
45	0xf0	-0.05064581
46	0xff	-0.003165363
47	0x10	0.05064581
48	0x0d	0.04114972
49	0xec	-0.06330726
50	0xc2	-0.19625251
51	0xe4	-0.08863017
52	0x4b	0.23740223
53	0xf0	-0.05064581
54	0xbf	-0.2057486
55	0x3a	0.18359105
56	0xe4	-0.08863017
57	0xc5	-0.18675642
58	0xb7	-0.2310715
59	0xd1	-0.14877206
60	0x3f	0.19941787
61	0x0a	0.03165363
62	0x28	0.12661453
63	0xfc	-0.012661452
64	0x41	0.2057486
65	0xca	-0.17092961
66	0x2f	0.14877206
67	0x26	0.1202838
68	0xff	-0.003165363
69	0x13	0.0601419
70	0xda	-0.1202838
71	0x47	0.22474077
72	0xcc	-0.16459888
73	0xe2	-0.09496089
74	0xba	-0.22157542
75	0xcb	-0.16776425
76	0x96	-0.3355285
77	0xf1	-0.047480445
78	0xc4	-0.18992178
79	0xb0	-0.25322905
80	0x11	0.053811174
81	0x20	0.10129162
82	0x34	0.16459888
83	0xeb	-0.06647263
84	0x35	0.16776425
85	0xfe	-0.006330726
86	0xd5	-0.13611062
87	0x15	0.06647263
88	0xb2	-0.24689832
89	0x20	0.10129162
90	0xfc	-0.012661452
91	0x4d	0.24373296
92	0xe2	-0.09496089
93	0xcb	-0.16776425
94	0x23	0.11078771
95	0x30	0.15193743
96	0x36	0.17092961
97	0x52	0.25955978
98	0x07	0.022157542
99	0x5f	0.3007095
100	0xfd	-0.009496089
101	0xf5	-0.034818996
102	0xf0	-0.05064581
103	0x44	0.2152447
104	0x56	0.27222124
105	0xc5	-0.18675642
106	0xf3	-0.04114972
107	0x18	0.07596871
108	0x32	0.15826815
109	0x02	0.006330726
110	0xc4	-0.18992178
111	0xbd	-0.21207933
112	0xff	-0.003165363
113	0xea	-0.06963799
114	0x42	0.20891397
115	0xc1	-0.19941787
116	0x1e	0.09496089
117	0x53	0.26272514
118	0x15	0.06647263
119	0x43	0.21207933
120	0xbc	-0.2152447
121	0xf4	-0.037984356
122	0x24	0.11395307
123	0x17	0.07280335
124	0x7c	0.39250502
125	0x42	0.20891397
126	0xcc	-0.16459888
127	0xb8	-0.22790614
128	0xbd	-0.21207933
129	0xfe	-0.006330726
130	0x41	0.2057486
131	0x2f	0.14877206
132	0xee	-0.056976534
133	0x4a	0.23423687
134	0xb2	-0.24689832
135	0x31	0.15510279
136	0x8f	-0.35768604
137	0xb3	-0.24373296
138	0xa4	-0.2912134
139	0xf2	-0.044315085
140	0xb6	-0.23423687
141	0x39	0.1804257
142	0xb6	-0.23423687
143	0x06	0.018992178
144	0xf6	-0.03165363
145	0x58	0.27855197
146	0x13	0.0601419
147	0xb5	-0.23740223
148	0xbf	-0.2057486
149	0x35	0.16776425
150	0x0f	0.047480445
151	0xbe	-0.20891397
152	0xf6	-0.03165363
153	0x1d	0.09179553
154	0xe4	-0.08863017
155	0x05	0.015826816
156	0x34	0.16459888
157	0xd1	-0.14877206
158	0x17	0.07280335
159	0x35	0.16776425
160	0xb5	-0.23740223
161	0xea	-0.06963799
162	0x2a	0.13294525
163	0x28	0.12661453
164	0xcd	-0.16143352
165	0xc8	-0.17726034
166	0xdf	-0.10445698
167	0x4d	0.24373296
168	0xc7	-0.1804257
169	0x0c	0.037984356
170	0xf6	-0.03165363
171	0xdc	-0.11395307
172	0x12	0.056976534
173	0xd4	-0.13927598
174	0x23	0.11078771
175	0x25	0.11711843
176	0xdf	-0.10445698
177	0x45	0.21841006
178	0x1d	0.09179553
179	0x05	0.015826816
180	0x47	0.22474077
181	0x14	0.06330726
182	0x07	0.022157542
183	0x48	0.22790614
184	0x21	0.10445698
185	0xb9	-0.22474077
186	0xf7	-0.028488267
187	0xcb	-0.16776425
188	0xfe	-0.006330726
189	0x1e	0.09496089
190	0x52	0.25955978
191	0x04	0.012661452
192	0xc1	-0.19941787
193	0x15	0.06647263
194	0xb2	-0.24689832
195	0xf0	-0.05064581
196	0xe3	-0.09179553
197	0x07	0.022157542
198	0xd9	-0.12344916
199	0x17	0.07280335
200	0xf9	-0.022157542
201	0xbf	-0.2057486
202	0xf2	-0.044315085
203	0x16	0.06963799
204	0x52	0.25955978
205	0xef	-0.053811174
206	0xcc	-0.16459888
207	0xf1	-0.047480445
208	0x1b	0.085464805
209	0xac	-0.2658905
210	0xe9	-0.07280335
211	0xd7	-0.12977989
212	0x03	0.009496089
213	0xfa	-0.018992178
214	0xfd	-0.009496089
215	0xb6	-0.23423687
216	0x30	0.15193743
217	0xf8	-0.025322905
218	0xda	-0.1202838
219	0x45	0.21841006
220	0xa3	-0.29437876
221	0x52	0.25955978
222	0xce	-0.15826815
223	0xf5	-0.034818996
224	0xf0	-0.05064581
225	0xf6	-0.03165363
226	0x18	0.07596871
227	0xf9	-0.022157542
228	0x08	0.025322905
229	0x27	0.12344916
230	0x02	0.006330726
231	0x1d	0.09179553
232	0x01	0.003165363
233	0xfe	-0.006330726
234	0x0a	0.03165363
235	0xdb	-0.11711843
236	0x47	0.22474077
237	0xe9	-0.07280335
238	0x35	0.16776425
239	0x24	0.11395307
240	0x44	0.2152447
241	0xc4	-0.18992178
242	0x17	0.07280335
243	0xc3	-0.19308715
244	0xf9	-0.022157542
245	0x56	0.27222124
246	0xe7	-0.07913408
247	0xe6	-0.08229944
248	0x0b	0.034818996
249	0x24	0.11395307
250	0xf6	-0.03165363
251	0x02	0.006330726
252	0x1b	0.085464805
253	0xfd	-0.009496089
254	0x52	0.25955978
255	0x1f	0.098126255

sequential/dense_1/MatMul i1 [32, 64] scale=0.003762794 zero_point=0
0	0x23	0.13169779
1	0xc7	-0.21447925
2	0x21	0.1241722
3	0xdc	-0.13546059
4	0x37	0.20695367
5	0xee	-0.06773029
6	0xc1	-0.23705602
7	0x13	0.07149308
8	0x3b	0.22200485
9	0x25	0.13922338
10	0x13	0.07149308
11	0x3b	0.22200485
12	0x1b	0.10159544
13	0xd7	-0.15427455
14	0xc9	-0.20695367
15	0x1b	0.10159544
16	0x2a	0.15803735
17	0xdb	-0.13922338
18	0xd0	-0.18061411
19	0xcf	-0.18437691
20	0x30	0.18061411
21	0xe7	-0.094069846
22	0x11	0.063967496
23	0x25	0.13922338
24	0xbf	-0.24458161
25	0x09	0.033865146
26	0xb7	-0.27468395
27	0x39	0.21447925
28	0x17	0.08654426
29	0xe2	-0.11288382
30	0x41	0.24458161
31	0x3a	0.21824205
32	0xfd	-0.011288382
33	0xdc	-0.13546059
34	0xc7	-0.21447925
35	0x47	0.26715836
36	0xf0	-0.060204703
37	0xd2	-0.17308852
38	0x3c	0.22576764
39	0x36	0.20319088
40	0x0c	0.04515353
41	0x42	0.2483444
42	0x22	0.12793499
43	0x00	0.0
44	0xf8	-0.030102352
45	0xf5	-0.041390732
46	0xef	-0.063967496
47	0x26	0.14298616
48	0xe7	-0.094069846
49	0xbc	-0.25586998
50	0xde	-0.12793499
51	0x06	0.022576764
52	0x30	0.18061411
53	0xef	-0.063967496
54	0xe2	-0.11288382
55	0xe0	-0.12040941
56	0xc3	-0.22953044
57	0x0a	0.03762794
58	0xf7	-0.033865146
59	0x3a	0.21824205
60	0xc9	-0.20695367
61	0xfd	-0.011288382
62	0x2e	0.17308852
63	0x3f	0.23705602
64	0xf4	-0.04515353
65	0x2c	0.16556293
66	0xd3	-0.16932572
67	0xba	-0.26339558
68	0x2f	0.17685132
69	0x3c	0.22576764
70	0xc7	-0.21447925
71	0x13	0.07149308
72	0xc2	-0.23329322
73	0x22	0.12793499
74	0x0a	0.03762794
75	0xdc	-0.13546059
76	0x0a	0.03762794
77	0x43	0.2521072
78	0xbd	-0.2521072
79	0xcc	-0.19566528
80	0x22	0.12793499
81	0xeb	-0.079018675
82	0xd9	-0.14674896
83	0x41	0.24458161
84	0xd1	-0.17685132
85	0xd0	-0.18061411
86	0x32	0.18813969
87	0xf6	-0.03762794
88	0xdf	-0.1241722
89	0x06	0.022576764
90	0xe0	-0.12040941
91	0xe7	-0.094069846
92	0x08	0.030102352
93	0xd3	-0.16932572
94	0xc6	-0.21824205
95	0xd8	-0.15051176
96	0xd7	-0.15427455
97	0x1e	0.11288382
98	0xd4	-0.16556293
99	0x45	0.2596328
100	0xd4	-0.16556293
101	0x31	0.18437691
102	0xc7	-0.21447925
103	0xdb	-0.13922338
104	0x12	0.06773029
105	0x0b	0.041390732
106	0xe6	-0.09783264
107	0x15	0.079018675
108	0x2d	0.16932572
109	0xe9	-0.08654426
110	0x23	0.13169779
111	0xed	-0.07149308
112	0x1b	0.10159544
113	0xc8	-0.21071646
114	0x17	0.08654426
115	0x2f	0.17685132
116	0x1e	0.11288382
117	0xf8	-0.030102352
118	0x03	0.011288382
119	0x2d	0.16932572
120	0x20	0.12040941
121	0x11	0.063967496
122	0xcd	-0.19190249
123	0xff	-0.003762794
124	0x0a	0.03762794
125	0x1a	0.09783264
126	0xcb	-0.19942808
127	0x0d	0.04891632
128	0xed	-0.07149308
129	0x3f	0.23705602
130	0xf8	-0.030102352
131	0xe6	-0.09783264
132	0x2e	0.17308852
133	0xe4	-0.10535823
134	0xc8	-0.21071646
135	0xcb	-0.19942808
136	0x38	0.21071646
137	0x2a	0.15803735
138	0x2b	0.16180015
139	0x53	0.3123119
140	0x1d	0.109121025
141	0xe7	-0.094069846
142	0xd1	-0.17685132
143	0xb9	-0.26715836
144	0xb7	-0.27468395
145	0xcc	-0.19566528
146	0x07	0.026339557
147	0x27	0.14674896
148	0xbd	-0.2521072
149	0xf0	-0.060204703
150	0x16	0.082781464
151	0x48	0.27092117
152	0x06	0.022576764
153	0x1b	0.10159544
154	0xec	-0.07525588
155	0x1d	0.109121025
156	0x27	0.14674896
157	0xbe	-0.2483444
158	0x0c	0.04515353
159	0xc6	-0.21824205
160	0x26	0.14298616
161	0xcd	-0.19190249
162	0xbe	-0.2483444
163	0xda	-0.14298616
164	0xc8	-0.21071646
165	0xcc	-0.19566528
166	0x43	0.2521072
167	0xd0	-0.18061411
168	0x24	0.13546059
169	0x3c	0.22576764
170	0x1c	0.10535823
171	0x00	0.0
172	0x33	0.19190249
173	0x05	0.01881397
174	0xd0	-0.18061411
175	0xed	-0.07149308
176	0xc1	-0.23705602
177	0xdb	-0.13922338
178	0xd6	-0.15803735
179	0xeb	-0.079018675
180	0xca	-0.20319088
181	0xfd	-0.011288382
182	0x05	0.01881397
183	0xca	-0.20319088
184	0xd3	-0.16932572
185	0x15	0.079018675
186	0xf6	-0.03762794
187	0xe3	-0.109121025
188	0xe0	-0.12040941
189	0x37	0.20695367
190	0xf3	-0.04891632
191	0xeb	-0.079018675
192	0x25	0.13922338
193	0xeb	-0.079018675
194	0xee	-0.06773029
195	0xf1	-0.05644191
196	0xf5	-0.041390732
197	0x31	0.18437691
198	0x28	0.15051176
199	0x0c	0.04515353
200	0xd9	-0.14674896
201	0x37	0.20695367
202	0x02	0.007525588
203	0xd6	-0.15803735
204	0x02	0.007525588
205	0xc5	-0.22200485
206	0xe2	-0.11288382
207	0x13	0.07149308
208	0xff	-0.003762794
209	0x2b	0.16180015
210	0xb3	-0.28973514
211	0xbe	-0.2483444
212	0x20	0.12040941
213	0x0d	0.04891632
214	0x35	0.19942808
215	0xf3	-0.04891632
216	0xd7	-0.15427455
217	0xcb	-0.19942808
218	0x44	0.25586998
219	0xce	-0.18813969
220	0x40	0.24081881
221	0xe1	-0.11664661
222	0x04	0.015051176
223	0x19	0.094069846
224	0xe9	-0.08654426
225	0x2f	0.17685132
226	0xce	-0.18813969
227	0xf3	-0.04891632
228	0xf4	-0.04515353
229	0xe7	-0.094069846
230	0x21	0.1241722
231	0xf2	-0.052679114
232	0xc2	-0.23329322
233	0x0c	0.04515353
234	0x31	0.18437691
235	0x05	0.01881397
236	0x3a	0.21824205
237	0xff	-0.003762794
238	0x1b	0.10159544
239	0x23	0.13169779
240	0xef	-0.063967496
241	0xce	-0.18813969
242	0xff	-0.003762794
243	0xc5	-0.22200485
244	0x1d	0.109121025
245	0xc3	-0.22953044
246	0x40	0.24081881
247	0x00	0.0
248	0x1a	0.09783264
249	0x35	0.19942808
250	0x11	0.063967496
251	0xc8	-0.21071646
252	0x35	0.19942808
253	0x0e	0.052679114
254	0x21	0.1241722
255	0xe0	-0.12040941

sequential/lstm/while/lstm_cell_10/BiasAdd/ReadVariableOp f4 [128]
0	0x3c7df0a0	0.015499264
1	0xbb8d25c0	-0.0043074787
2	0xbc8f309d	-0.017479235
3	0xbc69dccc	-0.0142738335
4	0x3d1bfe6a	0.038084425
5	0xbc8aa9cf	-0.016926674
6	0x3cc7a47a	0.02437042
7	0xbb72ba2a	-0.0037037232
8	0x3c6cbc46	0.014449185
9	0xbd0701e7	-0.0329608
10	0x3bac27d0	0.0052537695
11	0xbc2e83b8	-0.010651521
12	0xbbe0deb4	-0.006862486
13	0xbbf7f9d6	-0.0075676246
14	0xbbe53ca5	-0.006995755
15	0xbd00916e	-0.031388693
16	0xbd3b7878	-0.045769185
17	0xbcb3c807	-0.021945966
18	0x3c43354f	0.011914565
19	0xbc1608d8	-0.009157382
20	0xbbe63b0d	-0.0070260824
21	0x3c03d251	0.008045749
22	0xbbe88127	-0.0070954743
23	0xbccefb14	-0.025266208
24	0xbbc020cf	-0.005863286
25	0xbc85810f	-0.016296891
26	0xbc7eec0c	-0.015559208
27	0xbd01594f	-0.031579312
28	0x3c113420	0.008862525
29	0x3b15713d	0.002280309
30	0xbc74f4db	-0.014950956
31	0xbc62a44c	-0.013833117
32	0x3f7e4634	0.9932587
33	0x3f812f8b	1.0092634
34	0x3f79963a	0.9749485
35	0x3f7e237f	0.9927291
36	0x3f8a77d5	1.081782
37	0x3f80a185	1.0049292
38	0x3f8180a4	1.0117383
39	0x3f822988	1.0168924
40	0x3f70a5f5	0.9400323
41	0x3f803d89	1.0018779
42	0x3f7c944c	0.98663783
43	0x3f7d8885	0.9903644
44	0x3f8043d7	1.0020703
45	0x3f7e288a	0.9928061
46	0x3f82a8ab	1.0207723
47	0x3f87900b	1.0590833
48	0x3f795b52	0.9740497
49	0x3f7fc89f	0.999155
50	0x3f7f4caf	0.99726385
51	0x3f7e4e01	0.99337775
52	0x3f7e6886	0.9937824
53	0x3f736200	0.9507141
54	0x3f7dda09	0.9916082
55	0x3f7e06c0	0.9922905
56	0x3f7f06c1	0.9961968
57	0x3f7e0561	0.9922696
58	0x3f7be70e	0.98399436
59	0x3f7aec9f	0.98017305
60	0x3f80b8e5	1.0056425
61	0x3f7bd823	0.98376673
62	0x3f77f9ff	0.9686584
63	0x3f7b90d1	0.9826785
64	0xbaa0a182	-0.0012255164
65	0xbcd16ece	-0.025565531
66	0xbca3a249	-0.019974845
67	0xbc80402d	-0.015655601
68	0x3d54bb45	0.051936407
69	0xbb14f399	-0.0022728203
70	0x3d02a65b	0.03189693
71	0xbc9950b8	-0.018715248
72	0xbd32d80d	-0.043663073
73	0xbcb39c47	-0.021925105
74	0xbd01687d	-0.03159379
75	0xbd64f61d	-0.055898774
76	0xbc5e245d	-0.013558474
77	0xbbc02509	-0.00586379
78	0x3c77ad94	0.015117068
79	0xbc2bb7b1	-0.010480807
80	0x3c2ee64e	0.010675026
81	0xbc31365f	-0.010816186
82	0xbd212974	-0.039346173
83	0xbc1e662f	-0.009667917
84	0xbbe61da3	-0.007022576
85	0xbc6773b7	-0.01412671
86	0xbb5857fd	-0.003301143
87	0xbc9ada72	-0.018902991
88	0xbbae79a5	-0.0053245598
89	0xbbcc2914	-0.006230483
90	0x3b7f2987	0.0038934664
91	0xbcc44f29	-0.023963528
92	0xbd2fbac1	-0.04290271
93	0x3c761a60	0.015020937
94	0xbc5c7353	-0.01345523
95	0x3c467703	0.012113336
96	0x3b5d66d8	0.0033783223
97	0xbd0d2f93	-0.0344692
98	0xbcb747ab	-0.022373041
99	0xbc0ec29c	-0.008713391
100	0xbc6e5c98	-0.014548443
101	0x39ad4e64	0.00033055537
102	0x3c0b1f30	0.008491322
103	0x3cfe6737	0.031055076
104	0x3ce493bb	0.027902475
105	0xbd056f7f	-0.032577034
106	0xbc755a99	-0.014975213
107	0xbd5df4e7	-0.054188635
108	0x3cd39f1e	0.025832709
109	0xbb9430ba	-0.00452241
110	0xbca7a8a6	-0.02046616
111	0x3cded165	0.027199456
112	0xbd27d39c	-0.04097329
113	0xbc03c192	-0.008041756
114	0xbc8b788e	-0.017025258
115	0xbbeac3e0	-0.0071644634
116	0xbbfdd0ae	-0.007745824
117	0x3d02d76f	0.031943735
118	0xbc104361	-0.008805127
119	0xbce2ffe9	-0.027709918
120	0xbb7b93dc	-0.0038387692
121	0xbc01e9fe	-0.007929323
122	0xbc80b23d	-0.01570999
123	0xbd148474	-0.03625913
124	0xbd0a7751	-0.033805195
125	0xbc7e6456	-0.015526852
126	0xbcb68271	-0.022278996
127	0x3c8f8066	0.01751728

sequential/lstm/while/lstm_cell_10/MatMul_11 i1 [128, 32] scale=0.0027037978 zero_point=0
0	0x17	0.062187348
1	0xfe	-0.0054075955
2	0x1f	0.08381773
3	0xf0	-0.043260764
4	0x42	0.17845066
5	0xe0	-0.08652153
6	0x05	0.013518989
7	0xd4	-0.1189671
8	0xcf	-0.13248609
9	0x0b	0.029741775
10	0x3f	0.17033926
11	0xf1	-0.040556967
12	0x11	0.04596456
13	0xf3	-0.03514937
14	0xf4	-0.032445572
15	0xdf	-0.08922533
16	0xfb	-0.013518989
17	0x14	0.054075956
18	0xdb	-0.10004052
19	0xe7	-0.067594945
20	0x04	0.010815191
21	0xfc	-0.010815191
22	0x38	0.15141268
23	0xf5	-0.029741775
24	0xfb	-0.013518989
25	0x27	0.10544811
26	0x18	0.064891145
27	0x0b	0.029741775
28	0xfc	-0.010815191
29	0x1e	0.081113935
30	0x10	0.043260764
31	0xc6	-0.15682027
32	0x33	0.13789369
33	0xd9	-0.10544811
34	0x11	0.04596456
35	0xd3	-0.1216709
36	0xea	-0.05948355
37	0xea	-0.05948355
38	0x05	0.013518989
39	0x4b	0.20278484
40	0xd8	-0.10815191
41	0x1a	0.07029874
42	0x25	0.10004052
43	0x33	0.13789369
44	0x3f	0.17033926
45	0xe6	-0.07029874
46	0x2d	0.1216709
47	0x1c	0.07570634
48	0x24	0.09733672
49	0x0b	0.029741775
50	0xf2	-0.03785317
51	0xdf	-0.08922533
52	0xe4	-0.07570634
53	0x08	0.021630382
54	0x22	0.09192912
55	0xf3	-0.03514937
56	0xf9	-0.018926585
57	0x16	0.05948355
58	0x08	0.021630382
59	0x23	0.09463292
60	0xee	-0.04866836
61	0x0d	0.03514937
62	0x03	0.008111393
63	0xe1	-0.08381773
64	0xd4	-0.1189671
65	0xd8	-0.10815191
66	0x39	0.15411647
67	0x33	0.13789369
68	0x1e	0.081113935
69	0x1e	0.081113935
70	0x58	0.2379342
71	0xdf	-0.08922533
72	0xe0	-0.08652153
73	0xdb	-0.10004052
74	0x1e	0.081113935
75	0xdf	-0.08922533
76	0xdf	-0.08922533
77	0xf8	-0.021630382
78	0x0d	0.03514937
79	0x16	0.05948355
80	0xda	-0.10274432
81	0xca	-0.14600508
82	0xe1	-0.08381773
83	0x03	0.008111393
84	0x0c	0.032445572
85	0xfe	-0.0054075955
86	0x14	0.054075956
87	0xef	-0.04596456
88	0x09	0.02433418
89	0x10	0.043260764
90	0xf2	-0.03785317
91	0xfe	-0.0054075955
92	0xe8	-0.064891145
93	0x18	0.064891145
94	0xf0	-0.043260764
95	0x21	0.08922533
96	0xe8	-0.064891145
97	0xf4	-0.032445572
98	0x05	0.013518989
99	0x08	0.021630382
100	0xcf	-0.13248609
101	0xee	-0.04866836
102	0xdf	-0.08922533
103	0xdd	-0.09463292
104	0xe1	-0.08381773
105	0x24	0.09733672
106	0xf0	-0.043260764
107	0x14	0.054075956
108	0xe9	-0.062187348
109	0xe4	-0.07570634
110	0xcd	-0.13789369
111	0xeb	-0.056779753
112	0xf3	-0.03514937
113	0x1b	0.07300254
114	0x14	0.054075956
115	0x15	0.056779753
116	0x23	0.09463292
117	0x17	0.062187348
118	0xee	-0.04866836
119	0xfb	-0.013518989
120	0x04	0.010815191
121	0x0b	0.029741775
122	0x2e	0.124374695
123	0x4b	0.20278484
124	0xc7	-0.15411647
125	0xee	-0.04866836
126	0x0e	0.03785317
127	0x47	0.19196965
128	0x27	0.10544811
129	0x05	0.013518989
130	0xff	-0.0027037978
131	0xea	-0.05948355
132	0xea	-0.05948355
133	0xc1	-0.17033926
134	0xea	-0.05948355
135	0xec	-0.054075956
136	0x0c	0.032445572
137	0x2f	0.12707849
138	0x2c	0.1189671
139	0x16	0.05948355
140	0x2f	0.12707849
141	0x28	0.10815191
142	0x24	0.09733672
143	0xe8	-0.064891145
144	0x00	0.0
145	0xe5	-0.07300254
146	0x0d	0.03514937
147	0xe4	-0.07570634
148	0x07	0.018926585
149	0xff	-0.0027037978
150	0xd2	-0.124374695
151	0x81	-0.34338233
152	0xee	-0.04866836
153	0x18	0.064891145
154	0x09	0.02433418
155	0x03	0.008111393
156	0xe5	-0.07300254
157	0x2d	0.1216709
158	0x19	0.067594945
159	0xea	-0.05948355
160	0xd9	-0.10544811
161	0xd6	-0.11355951
162	0x22	0.09192912
163	0xfb	-0.013518989
164	0x67	0.27849117
165	0xd5	-0.11626331
166	0xf3	-0.03514937
167	0xf3	-0.03514937
168	0x01	0.0027037978
169	0x42	0.17845066
170	0xc7	-0.15411647
171	0xd0	-0.12978229
172	0xe0	-0.08652153
173	0xcb	-0.14330128
174	0xe9	-0.062187348
175	0x1e	0.081113935
176	0xfa	-0.016222786
177	0x34	0.14059748
178	0xfe	-0.0054075955
179	0xdf	-0.08922533
180	0x13	0.05137216
181	0xe8	-0.064891145
182	0xef	-0.04596456
183	0x08	0.021630382
184	0x25	0.10004052
185	0x19	0.067594945
186	0x00	0.0
187	0x00	0.0
188	0x28	0.10815191
189	0x26	0.10274432
190	0xd8	-0.10815191
191	0xed	-0.05137216
192	0x59	0.240638
193	0xd7	-0.110855706
194	0xeb	-0.056779753
195	0x00	0.0
196	0xf3	-0.03514937
197	0xcd	-0.13789369
198	0x1d	0.07841013
199	0xe9	-0.062187348
200	0xf1	-0.040556967
201	0xe3	-0.07841013
202	0xf3	-0.03514937
203	0x1b	0.07300254
204	0x11	0.04596456
205	0x10	0.043260764
206	0x20	0.08652153
207	0x02	0.0054075955
208	0x21	0.08922533
209	0x3b	0.15952407
210	0x10	0.043260764
211	0x09	0.02433418
212	0xea	-0.05948355
213	0xe5	-0.07300254
214	0xe4	-0.07570634
215	0x1c	0.07570634
216	0x0b	0.029741775
217	0xf0	-0.043260764
218	0x1b	0.07300254
219	0xf3	-0.03514937
220	0xfb	-0.013518989
221	0xe5	-0.07300254
222	0x17	0.062187348
223	0x05	0.013518989
224	0x10	0.043260764
225	0x05	0.013518989
226	0x27	0.10544811
227	0x0f	0.040556967
228	0x24	0.09733672
229	0x01	0.0027037978
230	0x2b	0.11626331
231	0xeb	-0.056779753
232	0xea	-0.05948355
233	0x16	0.05948355
234	0xe4	-0.07570634
235	0xfb	-0.013518989
236	0xd3	-0.1216709
237	0xf5	-0.029741775
238	0xef	-0.04596456
239	0x4c	0.20548864
240	0xe4	-0.07570634
241	0x23	0.09463292
242	0x20	0.08652153
243	0xec	-0.054075956
244	0xdd	-0.09463292
245	0xfd	-0.008111393
246	0x25	0.10004052
247	0xcd	-0.13789369
248	0xd2	-0.124374695
249	0x0b	0.029741775
250	0x19	0.067594945
251	0xfc	-0.010815191
252	0xef	-0.04596456
253	0xfb	-0.013518989
254	0xee	-0.04866836
255	0x13	0.05137216

sequential/lstm/while/lstm_cell_10/MatMul i1 [128, 1662] scale=0.005332418 zero_point=0
0	0xf8	-0.042659342
1	0x04	0.021329671
2	0xff	-0.005332418
3	0x00	0.0
4	0x0b	0.058656596
5	0x00	0.0
6	0xf4	-0.06398901
7	0x01	0.005332418
8	0x0c	0.06398901
9	0x05	0.026662089
10	0xf9	-0.037326925
11	0x08	0.042659342
12	0x04	0.021329671
13	0xf8	-0.042659342
14	0x03	0.015997253
15	0xfb	-0.026662089
16	0x07	0.037326925
17	0xfd	-0.015997253
18	0x05	0.026662089
19	0x0d	0.06932143
20	0x08	0.042659342
21	0xfc	-0.021329671
22	0xf9	-0.037326925
23	0x05	0.026662089
24	0xfb	-0.026662089
25	0x04	0.021329671
26	0xf5	-0.058656596
27	0xfc	-0.021329671
28	0xf8	-0.042659342
29	0x02	0.010664836
30	0x03	0.015997253
31	0x02	0.010664836
32	0xf9	-0.037326925
33	0xfb	-0.026662089
34	0xfb	-0.026662089
35	0xfc	-0.021329671
36	0xf8	-0.042659342
37	0x03	0.015997253
38	0xfd	-0.015997253
39	0xfd	-0.015997253
40	0x09	0.04799176
41	0x02	0.010664836
42	0xf9	-0.037326925
43	0x01	0.005332418
44	0x06	0.031994507
45	0xf8	-0.042659342
46	0xf6	-0.053324178
47	0x00	0.0
48	0xff	-0.005332418
49	0xff	-0.005332418
50	0x0c	0.06398901
51	0x09	0.04799176
52	0x06	0.031994507
53	0x00	0.0
54	0xfd	-0.015997253
55	0x07	0.037326925
56	0xfd	-0.015997253
57	0xfd	-0.015997253
58	0xf6	-0.053324178
59	0xf9	-0.037326925
60	0x03	0.015997253
61	0x09	0.04799176
62	0x05	0.026662089
63	0x04	0.021329671
64	0x00	0.0
65	0xf8	-0.042659342
66	0x04	0.021329671
67	0x07	0.037326925
68	0x0f	0.07998627
69	0xfe	-0.010664836
70	0xfb	-0.026662089
71	0x0d	0.06932143
72	0x09	0.04799176
73	0x05	0.026662089
74	0x06	0.031994507
75	0xfe	-0.010664836
76	0x06	0.031994507
77	0x09	0.04799176
78	0xfa	-0.031994507
79	0x02	0.010664836
80	0x08	0.042659342
81	0xf7	-0.04799176
82	0x04	0.021329671
83	0x05	0.026662089
84	0x0f	0.07998627
85	0xff	-0.005332418
86	0xf1	-0.07998627
87	0x01	0.005332418
88	0x0d	0.06932143
89	0xf6	-0.053324178
90	0x07	0.037326925
91	0xfb	-0.026662089
92	0x02	0.010664836
93	0xf8	-0.042659342
94	0x03	0.015997253
95	0x03	0.015997253
96	0x03	0.015997253
97	0x09	0.04799176
98	0xfa	-0.031994507
99	0x0a	0.053324178
100	0xfa	-0.031994507
101	0x0d	0.06932143
102	0xfb	-0.026662089
103	0x02	0.010664836
104	0x02	0.010664836
105	0x0c	0.06398901
106	0x00	0.0
107	0xf8	-0.042659342
108	0x0a	0.053324178
109	0x00	0.0
110	0x01	0.005332418
111	0x00	0.0
112	0x0d	0.06932143
113	0x04	0.021329671
114	0x09	0.04799176
115	0xfe	-0.010664836
116	0xfd	-0.015997253
117	0xfd	-0.015997253
118	0x0a	0.053324178
119	0x01	0.005332418
120	0xfa	-0.031994507
121	0x0c	0.06398901
122	0x09	0.04799176
123	0x01	0.005332418
124	0xf9	-0.037326925
125	0x0a	0.053324178
126	0xff	-0.005332418
127	0xfd	-0.015997253
128	0x03	0.015997253
129	0x09	0.04799176
130	0xfb	-0.026662089
131	0xf6	-0.053324178
132	0x0b	0.058656596
133	0x06	0.031994507
134	0xf8	-0.042659342
135	0x09	0.04799176
136	0x06	0.031994507
137	0xf3	-0.06932143
138	0x00	0.0
139	0x0c	0.06398901
140	0xf3	-0.06932143
141	0x0c	0.06398901
142	0x00	0.0
143	0x07	0.037326925
144	0x04	0.021329671
145	0x00	0.0
146	0xfb	-0.026662089
147	0x05	0.026662089
148	0x0b	0.058656596
149	0xfc	-0.021329671
150	0xff	-0.005332418
151	0xf9	-0.037326925
152	0xf6	-0.053324178
153	0x05	0.026662089
154	0xfd	-0.015997253
155	0x02	0.010664836
156	0xfd	-0.015997253
157	0xfc	-0.021329671
158	0xff	-0.005332418
159	0xfe	-0.010664836
160	0x09	0.04799176
161	0x01	0.005332418
162	0xfc	-0.021329671
163	0x03	0.015997253
164	0x05	0.026662089
165	0xfd	-0.015997253
166	0xf8	-0.042659342
167	0xfd	-0.015997253
168	0x03	0.015997253
169	0x0a	0.053324178
170	0xf2	-0.07465385
171	0xfc	-0.021329671
172	0x01	0.005332418
173	0x04	0.021329671
174	0xfa	-0.031994507
175	0x02	0.010664836
176	0x03	0.015997253
177	0x04	0.021329671
178	0x0c	0.06398901
179	0x07	0.037326925
180	0x02	0.010664836
181	0xf8	-0.042659342
182	0x03	0.015997253
183	0xf9	-0.037326925
184	0xf8	-0.042659342
185	0xfb	-0.026662089
186	0xfd	-0.015997253
187	0x03	0.015997253
188	0xfa	-0.031994507
189	0xfd	-0.015997253
190	0xf8	-0.042659342
191	0xf9	-0.037326925
192	0x0b	0.058656596
193	0x08	0.042659342
194	0xf4	-0.06398901
195	0xfa	-0.031994507
196	0xff	-0.005332418
197	0xff	-0.005332418
198	0x08	0.042659342
199	0xfb	-0.026662089
200	0x04	0.021329671
201	0x02	0.010664836
202	0x0c	0.06398901
203	0xf6	-0.053324178
204	0xfa	-0.031994507
205	0x03	0.015997253
206	0xfd	-0.015997253
207	0x06	0.031994507
208	0xfc	-0.021329671
209	0x07	0.037326925
210	0x09	0.04799176
211	0x0b	0.058656596
212	0x06	0.031994507
213	0xf9	-0.037326925
214	0xff	-0.005332418
215	0x04	0.021329671
216	0x0a	0.053324178
217	0x03	0.015997253
218	0x03	0.015997253
219	0x0d	0.06932143
220	0x0a	0.053324178
221	0x05	0.026662089
222	0x08	0.042659342
223	0x07	0.037326925
224	0xfb	-0.026662089
225	0x0c	0.06398901
226	0x00	0.0
227	0x03	0.015997253
228	0x0b	0.058656596
229	0x02	0.010664836
230	0xe9	-0.12264561
231	0x03	0.015997253
232	0xfc	-0.021329671
233	0xf9	-0.037326925
234	0x0c	0.06398901
235	0xfc	-0.021329671
236	0x0c	0.06398901
237	0x01	0.005332418
238	0x0c	0.06398901
239	0xf7	-0.04799176
240	0x03	0.015997253
241	0x04	0.021329671
242	0xf8	-0.042659342
243	0x01	0.005332418
244	0x01	0.005332418
245	0xf3	-0.06932143
246	0xf8	-0.042659342
247	0xf7	-0.04799176
248	0x02	0.010664836
249	0xff	-0.005332418
250	0xfe	-0.010664836
251	0xf4	-0.06398901
252	0x0a	0.053324178
253	0xfb	-0.026662089
254	0xf6	-0.053324178
255	0x0a	0.053324178

sequential/lstm_1/while/lstm_cell_11/BiasAdd/ReadVariableOp f4 [256]
0	0x3c7efc69	0.015563109
1	0xbc424ec6	-0.011859601
2	0xbd13006a	-0.035889067
3	0x3b4c18e3	0.0031142763
4	0xbc6327e2	-0.013864489
5	0xbc91872d	-0.017764652
6	0x3d09362d	0.03349893
7	0xbc36b52e	-0.011151595
8	0xbce3a5a5	-0.027788946
9	0xbbdad6a3	-0.0066784187
10	0xbc0add7c	-0.008475658
11	0xbcafc3e8	-0.02145572
12	0xbbc8fd46	-0.006133708
13	0xbc871a4f	-0.016492037
14	0xbcd2075a	-0.025638271
15	0xbb7eeb22	-0.0038897474
16	0xbc43c35f	-0.011948436
17	0xbc750371	-0.014954434
18	0xbd0f26ba	-0.034949042
19	0x3c8138c1	0.015774133
20	0x3caa7143	0.02080596
21	0x3bc8c7b6	0.006127323
22	0xbd127a3c	-0.035761103
23	0xbb9d11a8	-0.0047933646
24	0x3ce6d8f8	0.02817963
25	0x3bad5ede	0.00529085
26	0x3be88f40	0.007097155
27	0xbd06f919	-0.0329524
28	0x3cdb846a	0.026796538
29	0xbc4736e8	-0.012159087
30	0xbc1871c8	-0.009304471
31	0xbcdfac11	-0.027303727
32	0x3b982019	0.004642498
33	0x3c2d2b9d	0.01056948
34	0xbd85fb1d	-0.06542037
35	0xbc9dbbdb	-0.019254616
36	0xbd33e7fe	-0.043922417
37	0x3c80197c	0.015637152
38	0xbd0d773f	-0.03453755
39	0x3cc3ad19	0.02388625
40	0xbb97bf37	-0.004630949
41	0x3c41e4a4	0.011834297
42	0xbc849256	-0.01618306
43	0x3cbd1768	0.02308245
44	0xbc89093c	-0.016728036
45	0x3b344cb5	0.0027511541
46	0xbd295bfe	-0.041347496
47	0x3d2b0cf6	0.041760407
48	0xbc5359dc	-0.012899842
49	0x3c3a2fc8	0.011363931
50	0xbb99bd3d	-0.0046917484
51	0xbc488815	-0.012239476
52	0xbc632ee9	-0.013866165
53	0xbc4fee69	-0.012691119
54	0x3cd0e528	0.025499895
55	0x3ce911f3	0.028450942
56	0xbc0202b2	-0.007935213
57	0x3c8ed24c	0.017434262
58	0x3b3518c5	0.0027633172
59	0xbca76704	-0.020434864
60	0x3ae2ff44	0.0017318507
61	0xbd06b3ea	-0.032886423
62	0xbd514a22	-0.05109609
63	0xbba301e2	-0.0049745897
64	0x3f82353c	1.0172496
65	0x3f7ddf47	0.9916882
66	0x3f77a687	0.96738476
67	0x3f7feb68	0.99968576
68	0x3f7cca14	0.98745847
69	0x3f761454	0.9612477
70	0x3f8507d6	1.0393016
71	0x3f818b99	1.0120727
72	0x3f800260	1.0000725
73	0x3f79b15e	0.97536266
74	0x3f7fa83a	0.9986607
75	0x3f77c4e0	0.9678478
76	0x3f8371b7	1.0269078
77	0x3f7a28cd	0.9771851
78	0x3f7aa07b	0.97901124
79	0x3f7e68c9	0.9937864
80	0x3f7c9d45	0.98677474
81	0x3f7a6453	0.9780933
82	0x3f7ca885	0.9869464
83	0x3f7dcd45	0.9914134
84	0x3f82fc1c	1.0233188
85	0x3f7ad203	0.979767
86	0x3f76bba2	0.96380055
87	0x3f8111a7	1.0083512
88	0x3f7e484a	0.99329054
89	0x3f799302	0.9748994
90	0x3f806dfd	1.0033566
91	0x3f7d25da	0.9888588
92	0x3f80b9ff	1.0056762
93	0x3f7f10bd	0.99634916
94	0x3f7e6c11	0.99383646
95	0x3f7b1744	0.98082376
96	0x3f81149a	1.0084412
97	0x3f7bd6b0	0.9837446
98	0x3f7a2562	0.9771329
99	0x3f80a228	1.0049486
100	0x3f72b51b	0.94807595
101	0x3f858e0a	1.0433972
102	0x3f760ea8	0.96116114
103	0x3f84df45	1.0380636
104	0x3f7d3f47	0.9892468
105	0x3f8015f9	1.0006706
106	0x3f7c268b	0.9849631
107	0x3f8284d9	1.0196792
108	0x3f7fee32	0.9997283
109	0x3f805824	1.0026898
110	0x3f7de643	0.99179476
111	0x3f7f986a	0.9984194
112	0x3f7d792c	0.9901302
113	0x3f7ca34d	0.9868668
114	0x3f7fc0c7	0.9990353
115	0x3f7b8d23	0.9826223
116	0x3f7e93f6	0.9944452
117	0x3f7c51d4	0.9856236
118	0x3f82750a	1.0191967
119	0x3f81c0d5	1.0136973
120	0x3f7d4bf2	0.9894401
121	0x3f848129	1.0351917
122	0x3f8003a9	1.0001117
123	0x3f80aba7	1.0052384
124	0x3f744052	0.95410645
125	0x3f7caadf	0.9869823
126	0x3f79fe0d	0.97653276
127	0x3f7ed564	0.9954436
128	0x3c2aabff	0.010416984
129	0xbbaed462	-0.0053353766
130	0x3a02bfc6	0.0004987683
131	0xbbbcc26f	-0.005760483
132	0xbc564e23	-0.013080153
133	0xbc9df9e4	-0.019284196
134	0x3cf73284	0.030175455
135	0x3bf68613	0.007523307
136	0x3b4b55b3	0.0031026423
137	0xba42ddd0	-0.00074335653
138	0x3b4859a7	0.0030571015
139	0xbca31cbc	-0.019911163
140	0x3c6b3c73	0.014357674
141	0xbca832f2	-0.020532105
142	0xbd62adf7	-0.055341687
143	0xbc02532c	-0.0079544
144	0xbc09e59c	-0.00841656
145	0xbced5142	-0.02896941
146	0xbd1f4eae	-0.038893394
147	0xbcd37e53	-0.025817072
148	0xbc128a26	-0.00894407
149	0x3c3ab665	0.011396025
150	0xbd8e2317	-0.069402866
151	0x3c221099	0.0098916525
152	0xbc9c45f1	-0.01907632
153	0xbc6172d9	-0.013760292
154	0x3b5fe038	0.0034160744
155	0xbbe40834	-0.0069589857
156	0xbccd6b09	-0.025075452
157	0xbb0c1325	-0.0021373716
158	0xbb9ba02c	-0.0047493186
159	0xbd2ddf02	-0.042449005
160	0x3b93ea3d	0.0045140074
161	0xbc7587d0	-0.0149859935
162	0xbcc9b5d9	-0.024622845
163	0xbabe89cd	-0.0014536917
164	0xbd0aaae2	-0.033854373
165	0x3cdafa94	0.026730813
166	0xbade05a7	-0.001693894
167	0x3cb03811	0.02151111
168	0xbc554969	-0.013017991
169	0x3c5bfd25	0.013427054
170	0xbc828ea1	-0.015937151
171	0x3a1237b9	0.00055777613
172	0xbd421ac3	-0.047388803
173	0x3c5af8eb	0.013365011
174	0xbd07fbaf	-0.03319901
175	0xba7a36d1	-0.00095449114
176	0xbc43f485	-0.0119601535
177	0xbc236e26	-0.009974992
178	0xbba1a298	-0.0049327128
179	0xbc4653d2	-0.012104945
180	0xbc9172b7	-0.017754896
181	0xbc971091	-0.018440517
182	0xbbfa501f	-0.0076389457
183	0x3c330a1a	0.010927701
184	0xbc51ffd6	-0.012817344
185	0x3cadd045	0.021217475
186	0x3af9872b	0.0019037476
187	0x3cb352c3	0.02189005
188	0xbc4b5175	-0.012409558
189	0xbd07c68c	-0.033148333
190	0xbceb4b91	-0.028722556
191	0x3ae3809b	0.0017357053
192	0x3b3e0025	0.0028991785
193	0xbc09b5c6	-0.008405155
194	0xbcd30a2e	-0.02576169
195	0x3bacc0af	0.005271993
196	0xbc397da3	-0.011321458
197	0xbb0d3f4e	-0.0021552625
198	0x3cf6a504	0.030107982
199	0xbc74e7ec	-0.014947873
200	0x3cac1d3e	0.021010038
201	0xbbcef553	-0.006315866
202	0xbb671d59	-0.0035265295
203	0xbce85a88	-0.028363481
204	0x3ccdded0	0.02513066
205	0xbcaff2bd	-0.021478051
206	0xbd1c23ae	-0.038119964
207	0xbbdf3a01	-0.0068123345
208	0xbc0ae6f0	-0.008477911
209	0xbd3edeab	-0.04659907
210	0xbd1ec5c7	-0.038762834
211	0xbd8353b5	-0.0641245
212	0x3c89ef00	0.016837597
213	0x3998c0d0	0.00029135356
214	0xbd58fecd	-0.052977372
215	0xbc2b10cb	-0.0104410155
216	0xbcd3d77d	-0.025859589
217	0xbc24ab06	-0.010050541
218	0x3d1de184	0.038545147
219	0xbd76e3a7	-0.0602757
220	0xbc179f4f	-0.009254291
221	0x3c4a3ab3	0.012343097
222	0xbbe91b2e	-0.007113836
223	0xbce5f660	-0.028071582
224	0x3bde292c	0.0067798104
225	0xbc6e4f74	-0.01454531
226	0xbceab685	-0.028651485
227	0x3cd65076	0.026161414
228	0xbd13aa92	-0.03605134
229	0x3c6244fa	0.013810391
230	0xbcbaa744	-0.022784837
231	0x3c1baad6	0.00950118
232	0x3c59429a	0.013260508
233	0xbcfb04e8	-0.030641988
234	0xbc761841	-0.015020431
235	0x3ca78cb1	0.02045283
236	0x3c5f7a0a	0.013639936
237	0x3b79a940	0.0038095266
238	0xbcf961d8	-0.030442163
239	0x3c8591a4	0.016304798
240	0xbc577b08	-0.0131518915
241	0xbc8a50c4	-0.016884215
242	0xbc3485df	-0.0110182455
243	0xbbc634c6	-0.0060487716
244	0xbc4adcd6	-0.012381753
245	0xbc48707e	-0.0122338515
246	0x3cd2d538	0.025736436
247	0x3d9ef071	0.07760704
248	0xbbe3d4da	-0.006952864
249	0x3cd6d9e5	0.026226947
250	0xbaecb74e	-0.001806
251	0x3c8b5d98	0.017012402
252	0x3ba6f892	0.00509555
253	0xbd1a2b87	-0.037639167
254	0xbcf264e7	-0.02958913
255	0x3abc9d0d	0.0014390066

sequential/lstm_1/while/lstm_cell_11/MatMul_11 i1 [256, 64] scale=0.0019186413 zero_point=0
0	0x27	0.07482701
1	0xc5	-0.11319984
2	0x07	0.013430489
3	0xf6	-0.019186413
4	0xf7	-0.017267771
5	0x1a	0.049884673
6	0x65	0.19378276
7	0xf3	-0.024942337
8	0x2e	0.0882575
9	0x28	0.07674565
10	0x11	0.032616902
11	0x0d	0.024942337
12	0x13	0.036454186
13	0x39	0.10936255
14	0x30	0.09209478
15	0x23	0.06715245
16	0x06	0.011511847
17	0xe8	-0.04604739
18	0xd9	-0.07482701
19	0x32	0.09593207
20	0x26	0.07290837
21	0xec	-0.038372826
22	0x0d	0.024942337
23	0x09	0.017267771
24	0xc5	-0.11319984
25	0x04	0.007674565
26	0x23	0.06715245
27	0x0f	0.028779618
28	0x28	0.07674565
29	0x16	0.04221011
30	0xeb	-0.040291466
31	0x21	0.06331516
32	0x48	0.13814217
33	0x14	0.038372826
34	0x0c	0.023023695
35	0x1c	0.053721957
36	0xd4	-0.08442022
37	0x2f	0.09017614
38	0xd4	-0.08442022
39	0x14	0.038372826
40	0xdc	-0.069071084
41	0x2f	0.09017614
42	0xf5	-0.021105055
43	0x00	0.0
44	0xfe	-0.0038372825
45	0xf7	-0.017267771
46	0x05	0.009593206
47	0x12	0.034535542
48	0xec	-0.038372826
49	0x13	0.036454186
50	0x33	0.0978507
51	0x08	0.01534913
52	0x15	0.040291466
53	0x3f	0.1208744
54	0xf5	-0.021105055
55	0x2a	0.08058293
56	0x19	0.047966033
57	0x26	0.07290837
58	0xc1	-0.1208744
59	0x0c	0.023023695
60	0x11	0.032616902
61	0x18	0.04604739
62	0xea	-0.04221011
63	0xfc	-0.007674565
64	0x1b	0.051803313
65	0xed	-0.036454186
66	0x04	0.007674565
67	0x0b	0.021105055
68	0xf3	-0.024942337
69	0x24	0.069071084
70	0xc1	-0.1208744
71	0x15	0.040291466
72	0xf4	-0.023023695
73	0xf4	-0.023023695
74	0x28	0.07674565
75	0x14	0.038372826
76	0xea	-0.04221011
77	0xa8	-0.16884044
78	0xda	-0.07290837
79	0xdd	-0.06715245
80	0xef	-0.032616902
81	0x01	0.0019186413
82	0xf4	-0.023023695
83	0x47	0.13622352
84	0x01	0.0019186413
85	0x02	0.0038372825
86	0x05	0.009593206
87	0xf0	-0.03069826
88	0xf0	-0.03069826
89	0xca	-0.10360663
90	0x0c	0.023023695
91	0xed	-0.036454186
92	0x31	0.09401342
93	0x0a	0.019186413
94	0xdf	-0.06331516
95	0xef	-0.032616902
96	0x2e	0.0882575
97	0xf2	-0.026860978
98	0xdb	-0.07098973
99	0x15	0.040291466
100	0xf8	-0.01534913
101	0xdc	-0.069071084
102	0x18	0.04604739
103	0xc5	-0.11319984
104	0x1a	0.049884673
105	0xe5	-0.051803313
106	0xe3	-0.055640597
107	0x1c	0.053721957
108	0x00	0.0
109	0xed	-0.036454186
110	0xbe	-0.12663032
111	0xfc	-0.007674565
112	0xf3	-0.024942337
113	0x4a	0.14197946
114	0xf2	-0.026860978
115	0xe6	-0.049884673
116	0x15	0.040291466
117	0xe3	-0.055640597
118	0xde	-0.065233804
119	0xe9	-0.04412875
120	0x05	0.009593206
121	0xf8	-0.01534913
122	0xea	-0.04221011
123	0xe7	-0.047966033
124	0xcd	-0.0978507
125	0xe9	-0.04412875
126	0xe6	-0.049884673
127	0xdc	-0.069071084
128	0xda	-0.07290837
129	0x14	0.038372826
130	0xe9	-0.04412875
131	0xee	-0.034535542
132	0x0f	0.028779618
133	0xe6	-0.049884673
134	0xff	-0.0019186413
135	0xdb	-0.07098973
136	0xad	-0.15924722
137	0xe3	-0.055640597
138	0x08	0.01534913
139	0xfc	-0.007674565
140	0x1a	0.049884673
141	0xf1	-0.028779618
142	0x0d	0.024942337
143	0xdc	-0.069071084
144	0xd4	-0.08442022
145	0x1d	0.055640597
146	0xc8	-0.107443914
147	0x2e	0.0882575
148	0xf8	-0.01534913
149	0xe3	-0.055640597
150	0x06	0.011511847
151	0xf2	-0.026860978
152	0xcb	-0.10168799
153	0x16	0.04221011
154	0xef	-0.032616902
155	0xe7	-0.047966033
156	0x12	0.034535542
157	0xf8	-0.01534913
158	0xec	-0.038372826
159	0xec	-0.038372826
160	0xd7	-0.078664295
161	0x0c	0.023023695
162	0x31	0.09401342
163	0xe0	-0.06139652
164	0x49	0.14006081
165	0xba	-0.1343049
166	0x5f	0.18227091
167	0x07	0.013430489
168	0xf1	-0.028779618
169	0xcc	-0.09976935
170	0x31	0.09401342
171	0x1a	0.049884673
172	0xd8	-0.07674565
173	0x03	0.0057559237
174	0x0f	0.028779618
175	0xe3	-0.055640597
176	0x14	0.038372826
177	0xe1	-0.05947788
178	0x4e	0.14965402
179	0xc3	-0.11703712
180	0x05	0.009593206
181	0xe3	-0.055640597
182	0xbc	-0.13046761
183	0xed	-0.036454186
184	0xfd	-0.0057559237
185	0x05	0.009593206
186	0x1f	0.05947788
187	0xd0	-0.09209478
188	0xe3	-0.055640597
189	0x1a	0.049884673
190	0xf9	-0.013430489
191	0xbf	-0.124711685
192	0x23	0.06715245
193	0x27	0.07482701
194	0xf2	-0.026860978
195	0x1f	0.05947788
196	0xcd	-0.0978507
197	0xf6	-0.019186413
198	0x0f	0.028779618
199	0xfd	-0.0057559237
200	0x0d	0.024942337
201	0xf2	-0.026860978
202	0xda	-0.07290837
203	0x34	0.09976935
204	0xe5	-0.051803313
205	0x07	0.013430489
206	0xfb	-0.009593206
207	0xf6	-0.019186413
208	0x2c	0.08442022
209	0xdd	-0.06715245
210	0xf0	-0.03069826
211	0xeb	-0.040291466
212	0xe6	-0.049884673
213	0x18	0.04604739
214	0xf9	-0.013430489
215	0x28	0.07674565
216	0xd5	-0.082501575
217	0xee	-0.034535542
218	0xee	-0.034535542
219	0xe9	-0.04412875
220	0x28	0.07674565
221	0xdb	-0.07098973
222	0x2c	0.08442022
223	0x06	0.011511847
224	0x1f	0.05947788
225	0xed	-0.036454186
226	0xce	-0.09593207
227	0x0b	0.021105055
228	0xe6	-0.049884673
229	0x23	0.06715245
230	0x1c	0.053721957
231	0xdc	-0.069071084
232	0xe3	-0.055640597
233	0xee	-0.034535542
234	0x2d	0.086338855
235	0x22	0.065233804
236	0xc9	-0.10552527
237	0x23	0.06715245
238	0x01	0.0019186413
239	0xe9	-0.04412875
240	0xf3	-0.024942337
241	0x29	0.078664295
242	0x1c	0.053721957
243	0x0c	0.023023695
244	0xd9	-0.07482701
245	0x33	0.0978507
246	0x0f	0.028779618
247	0xe6	-0.049884673
248	0x2b	0.082501575
249	0x24	0.069071084
250	0xf2	-0.026860978
251	0x01	0.0019186413
252	0x25	0.07098973
253	0xed	-0.036454186
254	0x32	0.09593207
255	0xe8	-0.04604739

sequential/lstm_1/while/lstm_cell_11/MatMul i1 [256, 32] scale=0.0029342035 zero_point=0
0	0x16	0.06455248
1	0x12	0.05281566
2	0x0e	0.04107885
3	0x16	0.06455248
4	0x16	0.06455248
5	0xd8	-0.11736814
6	0x0e	0.04107885
7	0x15	0.061618272
8	0x01	0.0029342035
9	0x1c	0.0821577
10	0x27	0.11443394
11	0xfb	-0.014671017
12	0xdc	-0.10563132
13	0x31	0.14377597
14	0xeb	-0.061618272
15	0xe8	-0.07042088
16	0xf0	-0.046947256
17	0xd2	-0.13497336
18	0x15	0.061618272
19	0x08	0.023473628
20	0x22	0.09976292
21	0xe0	-0.09389451
22	0x30	0.14084177
23	0xed	-0.055749867
24	0xe5	-0.07922349
25	0x02	0.005868407
26	0xec	-0.05868407
27	0x03	0.00880261
28	0x0a	0.029342035
29	0x31	0.14377597
30	0x24	0.10563132
31	0xf6	-0.029342035
32	0xca	-0.15844698
33	0x0f	0.044013053
34	0xd9	-0.11443394
35	0x26	0.111499734
36	0xf4	-0.03521044
37	0xf5	-0.03227624
38	0x18	0.07042088
39	0x19	0.073355086
40	0x0e	0.04107885
41	0x1c	0.0821577
42	0x1d	0.085091904
43	0x2d	0.13203916
44	0x24	0.10563132
45	0x01	0.0029342035
46	0xf1	-0.044013053
47	0x04	0.011736814
48	0x08	0.023473628
49	0xd6	-0.123236544
50	0x02	0.005868407
51	0x10	0.046947256
52	0x18	0.07042088
53	0xc8	-0.1643154
54	0x07	0.020539425
55	0xd2	-0.13497336
56	0x06	0.01760522
57	0xf1	-0.044013053
58	0xf0	-0.046947256
59	0xd6	-0.123236544
60	0xe4	-0.0821577
61	0x05	0.014671017
62	0x1d	0.085091904
63	0xef	-0.04988146
64	0xd7	-0.12030234
65	0xdf	-0.096828714
66	0xcd	-0.14964437
67	0x19	0.073355086
68	0xf5	-0.03227624
69	0xe8	-0.07042088
70	0xd4	-0.12910496
71	0x1c	0.0821577
72	0xd9	-0.11443394
73	0xf6	-0.029342035
74	0x16	0.06455248
75	0x14	0.05868407
76	0xec	-0.05868407
77	0xf3	-0.038144644
78	0xf4	-0.03521044
79	0x18	0.07042088
80	0xcc	-0.15257858
81	0xfe	-0.005868407
82	0xd2	-0.13497336
83	0x2a	0.123236544
84	0x05	0.014671017
85	0x1f	0.09096031
86	0xe9	-0.06748668
87	0x11	0.04988146
88	0xfd	-0.00880261
89	0xfd	-0.00880261
90	0xda	-0.111499734
91	0xf9	-0.020539425
92	0xfa	-0.01760522
93	0xca	-0.15844698
94	0xed	-0.055749867
95	0x2b	0.12617075
96	0xf1	-0.044013053
97	0x0d	0.038144644
98	0x18	0.07042088
99	0xf1	-0.044013053
100	0xe3	-0.085091904
101	0x14	0.05868407
102	0xeb	-0.061618272
103	0xd0	-0.14084177
104	0x2d	0.13203916
105	0xf6	-0.029342035
106	0xfc	-0.011736814
107	0xf6	-0.029342035
108	0x00	0.0
109	0xf3	-0.038144644
110	0xd9	-0.11443394
111	0xd2	-0.13497336
112	0xdb	-0.10856553
113	0xec	-0.05868407
114	0xd5	-0.12617075
115	0x2c	0.12910496
116	0xee	-0.05281566
117	0x02	0.005868407
118	0x14	0.05868407
119	0x24	0.10563132
120	0x23	0.10269712
121	0x10	0.046947256
122	0xcc	-0.15257858
123	0xdb	-0.10856553
124	0xed	-0.055749867
125	0x11	0.04988146
126	0xe3	-0.085091904
127	0x16	0.06455248
128	0xd2	-0.13497336
129	0x26	0.111499734
130	0xe1	-0.09096031
131	0xdb	-0.10856553
132	0x19	0.073355086
133	0x12	0.05281566
134	0x18	0.07042088
135	0xec	-0.05868407
136	0x28	0.11736814
137	0xd9	-0.11443394
138	0xed	-0.055749867
139	0xd3	-0.13203916
140	0xf5	-0.03227624
141	0xfa	-0.01760522
142	0x10	0.046947256
143	0xe6	-0.07628929
144	0xe5	-0.07922349
145	0x21	0.096828714
146	0xd2	-0.13497336
147	0x0a	0.029342035
148	0xe1	-0.09096031
149	0xf3	-0.038144644
150	0x0c	0.03521044
151	0xf3	-0.038144644
152	0xd4	-0.12910496
153	0xec	-0.05868407
154	0xf3	-0.038144644
155	0xe8	-0.07042088
156	0xfd	-0.00880261
157	0xcf	-0.14377597
158	0xe0	-0.09389451
159	0xf2	-0.04107885
160	0x2c	0.12910496
161	0xe4	-0.0821577
162	0x19	0.073355086
163	0xe7	-0.073355086
164	0x22	0.09976292
165	0x38	0.1643154
166	0x20	0.09389451
167	0xfc	-0.011736814
168	0x1b	0.07922349
169	0x26	0.111499734
170	0xd8	-0.11736814
171	0xdf	-0.096828714
172	0xff	-0.0029342035
173	0x2f	0.13790756
174	0x04	0.011736814
175	0x11	0.04988146
176	0x06	0.01760522
177	0x0b	0.03227624
178	0xff	-0.0029342035
179	0x18	0.07042088
180	0xfc	-0.011736814
181	0xe8	-0.07042088
182	0x11	0.04988146
183	0xdf	-0.096828714
184	0xe0	-0.09389451
185	0x06	0.01760522
186	0x32	0.14671017
187	0xe0	-0.09389451
188	0xfa	-0.01760522
189	0xeb	-0.061618272
190	0xe0	-0.09389451
191	0xe4	-0.0821577
192	0x26	0.111499734
193	0x20	0.09389451
194	0xf2	-0.04107885
195	0x2d	0.13203916
196	0xe2	-0.08802611
197	0xe3	-0.085091904
198	0x01	0.0029342035
199	0x16	0.06455248
200	0xb7	-0.21419686
201	0xf8	-0.023473628
202	0xe2	-0.08802611
203	0xe1	-0.09096031
204	0xc3	-0.17898642
205	0xda	-0.111499734
206	0xe1	-0.09096031
207	0xe3	-0.085091904
208	0x0c	0.03521044
209	0x07	0.020539425
210	0x0b	0.03227624
211	0xea	-0.06455248
212	0xdf	-0.096828714
213	0xd8	-0.11736814
214	0x19	0.073355086
215	0xe2	-0.08802611
216	0x0e	0.04107885
217	0x0d	0.038144644
218	0xf5	-0.03227624
219	0xd7	-0.12030234
220	0x28	0.11736814
221	0xcb	-0.15551278
222	0x10	0.046947256
223	0x09	0.02640783
224	0xe7	-0.073355086
225	0x05	0.014671017
226	0x12	0.05281566
227	0x05	0.014671017
228	0x37	0.16138119
229	0x0c	0.03521044
230	0xda	-0.111499734
231	0xcd	-0.14964437
232	0x27	0.11443394
233	0x2b	0.12617075
234	0x2b	0.12617075
235	0xfc	-0.011736814
236	0xd8	-0.11736814
237	0xdd	-0.10269712
238	0xc9	-0.16138119
239	0x00	0.0
240	0x22	0.09976292
241	0xf4	-0.03521044
242	0x1c	0.0821577
243	0xda	-0.111499734
244	0x01	0.0029342035
245	0xe5	-0.07922349
246	0x0c	0.03521044
247	0xd2	-0.13497336
248	0xe0	-0.09389451
249	0x12	0.05281566
250	0xd9	-0.11443394
251	0x12	0.05281566
252	0x02	0.005868407
253	0xcb	-0.15551278
254	0x21	0.096828714
255	0x27	0.11443394
